…
2025-10-13 13:54:48,147 [INFO] Class distribution - Min: 1, Max: 97255, Avg: 2532
2025-10-13 13:54:48,222 [INFO] Step 3: Splitting data...
2025-10-13 13:54:48,740 [INFO] Train: (320000, 200), Test: (80000, 200)
2025-10-13 13:54:48,740 [INFO] Step 4: Building improved model with 158 classes...
2025-10-13 13:54:49,548 [INFO] Model: "sequential"
┏━━━━━━━━━━━━━━━━━━━━━━━━━━━━━━━━━━━━━━┳━━━━━━━━━━━━━━━━━━━━━━━━━━━━━┳━━━━━━━━━━━━━━━━━┓
┃ Layer (type)                         ┃ Output Shape                ┃         Param # ┃
┡━━━━━━━━━━━━━━━━━━━━━━━━━━━━━━━━━━━━━━╇━━━━━━━━━━━━━━━━━━━━━━━━━━━━━╇━━━━━━━━━━━━━━━━━┩
│ embedding (Embedding)                │ (None, 200, 256)            │       3,072,256 │
├──────────────────────────────────────┼─────────────────────────────┼─────────────────┤
│ bidirectional (Bidirectional)        │ (None, 200, 512)            │       1,050,624 │
├──────────────────────────────────────┼─────────────────────────────┼─────────────────┤
│ dropout (Dropout)                    │ (None, 200, 512)            │               0 │
├──────────────────────────────────────┼─────────────────────────────┼─────────────────┤
│ layer_normalization                  │ (None, 200, 512)            │           1,024 │
│ (LayerNormalization)                 │                             │                 │
├──────────────────────────────────────┼─────────────────────────────┼─────────────────┤
│ bidirectional_1 (Bidirectional)      │ (None, 200, 384)            │       1,082,880 │
├──────────────────────────────────────┼─────────────────────────────┼─────────────────┤
│ dropout_1 (Dropout)                  │ (None, 200, 384)            │               0 │
├──────────────────────────────────────┼─────────────────────────────┼─────────────────┤
│ layer_normalization_1                │ (None, 200, 384)            │             768 │
│ (LayerNormalization)                 │                             │                 │
├──────────────────────────────────────┼─────────────────────────────┼─────────────────┤
│ bidirectional_2 (Bidirectional)      │ (None, 256)                 │         525,312 │
├──────────────────────────────────────┼─────────────────────────────┼─────────────────┤
│ dropout_2 (Dropout)                  │ (None, 256)                 │               0 │
├──────────────────────────────────────┼─────────────────────────────┼─────────────────┤
│ dense (Dense)                        │ (None, 2048)                │         526,336 │
├──────────────────────────────────────┼─────────────────────────────┼─────────────────┤
│ dropout_3 (Dropout)                  │ (None, 2048)                │               0 │
├──────────────────────────────────────┼─────────────────────────────┼─────────────────┤
│ layer_normalization_2                │ (None, 2048)                │           4,096 │
│ (LayerNormalization)                 │                             │                 │
├──────────────────────────────────────┼─────────────────────────────┼─────────────────┤
│ dense_1 (Dense)                      │ (None, 1536)                │       3,147,264 │
├──────────────────────────────────────┼─────────────────────────────┼─────────────────┤
│ dropout_4 (Dropout)                  │ (None, 1536)                │               0 │
├──────────────────────────────────────┼─────────────────────────────┼─────────────────┤
│ layer_normalization_3                │ (None, 1536)                │           3,072 │
│ (LayerNormalization)                 │                             │                 │
├──────────────────────────────────────┼─────────────────────────────┼─────────────────┤
│ dense_2 (Dense)                      │ (None, 1024)                │       1,573,888 │
├──────────────────────────────────────┼─────────────────────────────┼─────────────────┤
│ dropout_5 (Dropout)                  │ (None, 1024)                │               0 │
├──────────────────────────────────────┼─────────────────────────────┼─────────────────┤
│ layer_normalization_4                │ (None, 1024)                │           2,048 │
│ (LayerNormalization)                 │                             │                 │
├──────────────────────────────────────┼─────────────────────────────┼─────────────────┤
│ dense_3 (Dense)                      │ (None, 512)                 │         524,800 │
├──────────────────────────────────────┼─────────────────────────────┼─────────────────┤
│ dropout_6 (Dropout)                  │ (None, 512)                 │               0 │
├──────────────────────────────────────┼─────────────────────────────┼─────────────────┤
│ dense_4 (Dense)                      │ (None, 256)                 │         131,328 │
├──────────────────────────────────────┼─────────────────────────────┼─────────────────┤
│ dropout_7 (Dropout)                  │ (None, 256)                 │               0 │
├──────────────────────────────────────┼─────────────────────────────┼─────────────────┤
│ dense_5 (Dense)                      │ (None, 128)                 │          32,896 │
├──────────────────────────────────────┼─────────────────────────────┼─────────────────┤
│ dropout_8 (Dropout)                  │ (None, 128)                 │               0 │
├──────────────────────────────────────┼─────────────────────────────┼─────────────────┤
│ dense_6 (Dense)                      │ (None, 158)                 │          20,382 │
└──────────────────────────────────────┴─────────────────────────────┴─────────────────┘
 Total params: 11,698,974 (44.63 MB)
 Trainable params: 11,698,974 (44.63 MB)
 Non-trainable params: 0 (0.00 B)

2025-10-13 13:54:49,549 [INFO] Total parameters: 11,698,974
2025-10-13 13:54:49,549 [INFO] Step 5: Starting training with IMPROVED regularization...
2025-10-13 13:54:49,549 [INFO] Batch size: 64, Epochs: 50 (with early stopping)
…
