…
2025-10-13 14:17:18,705 [INFO] Embedding input dim: 15001, Max length: 350
2025-10-13 14:17:18,707 [INFO] Step 3: Splitting data...
2025-10-13 14:17:18,714 [INFO] Train: (8000, 350), Test: (2000, 350)
2025-10-13 14:17:18,714 [INFO] Step 4: Building regularized model with 127 classes...
2025-10-13 14:17:19,638 [INFO] Model: "sequential"
┏━━━━━━━━━━━━━━━━━━━━━━━━━━━━━━━━━━━━━━┳━━━━━━━━━━━━━━━━━━━━━━━━━━━━━┳━━━━━━━━━━━━━━━━━┓
┃ Layer (type)                         ┃ Output Shape                ┃         Param # ┃
┡━━━━━━━━━━━━━━━━━━━━━━━━━━━━━━━━━━━━━━╇━━━━━━━━━━━━━━━━━━━━━━━━━━━━━╇━━━━━━━━━━━━━━━━━┩
│ embedding (Embedding)                │ (None, 350, 384)            │       5,760,384 │
├──────────────────────────────────────┼─────────────────────────────┼─────────────────┤
│ bidirectional (Bidirectional)        │ (None, 350, 768)            │       2,362,368 │
├──────────────────────────────────────┼─────────────────────────────┼─────────────────┤
│ dropout (Dropout)                    │ (None, 350, 768)            │               0 │
├──────────────────────────────────────┼─────────────────────────────┼─────────────────┤
│ layer_normalization                  │ (None, 350, 768)            │           1,536 │
│ (LayerNormalization)                 │                             │                 │
├──────────────────────────────────────┼─────────────────────────────┼─────────────────┤
│ bidirectional_1 (Bidirectional)      │ (None, 350, 512)            │       2,099,200 │
├──────────────────────────────────────┼─────────────────────────────┼─────────────────┤
│ dropout_1 (Dropout)                  │ (None, 350, 512)            │               0 │
├──────────────────────────────────────┼─────────────────────────────┼─────────────────┤
│ layer_normalization_1                │ (None, 350, 512)            │           1,024 │
│ (LayerNormalization)                 │                             │                 │
├──────────────────────────────────────┼─────────────────────────────┼─────────────────┤
│ bidirectional_2 (Bidirectional)      │ (None, 350, 256)            │         656,384 │
├──────────────────────────────────────┼─────────────────────────────┼─────────────────┤
│ dropout_2 (Dropout)                  │ (None, 350, 256)            │               0 │
├──────────────────────────────────────┼─────────────────────────────┼─────────────────┤
│ bidirectional_3 (Bidirectional)      │ (None, 128)                 │         164,352 │
├──────────────────────────────────────┼─────────────────────────────┼─────────────────┤
│ dropout_3 (Dropout)                  │ (None, 128)                 │               0 │
├──────────────────────────────────────┼─────────────────────────────┼─────────────────┤
│ dense (Dense)                        │ (None, 4096)                │         528,384 │
├──────────────────────────────────────┼─────────────────────────────┼─────────────────┤
│ dropout_4 (Dropout)                  │ (None, 4096)                │               0 │
├──────────────────────────────────────┼─────────────────────────────┼─────────────────┤
│ layer_normalization_2                │ (None, 4096)                │           8,192 │
│ (LayerNormalization)                 │                             │                 │
├──────────────────────────────────────┼─────────────────────────────┼─────────────────┤
│ dense_1 (Dense)                      │ (None, 3072)                │      12,585,984 │
├──────────────────────────────────────┼─────────────────────────────┼─────────────────┤
│ dropout_5 (Dropout)                  │ (None, 3072)                │               0 │
├──────────────────────────────────────┼─────────────────────────────┼─────────────────┤
│ layer_normalization_3                │ (None, 3072)                │           6,144 │
│ (LayerNormalization)                 │                             │                 │
├──────────────────────────────────────┼─────────────────────────────┼─────────────────┤
│ dense_2 (Dense)                      │ (None, 2048)                │       6,293,504 │
├──────────────────────────────────────┼─────────────────────────────┼─────────────────┤
│ dropout_6 (Dropout)                  │ (None, 2048)                │               0 │
├──────────────────────────────────────┼─────────────────────────────┼─────────────────┤
│ layer_normalization_4                │ (None, 2048)                │           4,096 │
│ (LayerNormalization)                 │                             │                 │
├──────────────────────────────────────┼─────────────────────────────┼─────────────────┤
│ dense_3 (Dense)                      │ (None, 1024)                │       2,098,176 │
├──────────────────────────────────────┼─────────────────────────────┼─────────────────┤
│ dropout_7 (Dropout)                  │ (None, 1024)                │               0 │
├──────────────────────────────────────┼─────────────────────────────┼─────────────────┤
│ layer_normalization_5                │ (None, 1024)                │           2,048 │
│ (LayerNormalization)                 │                             │                 │
├──────────────────────────────────────┼─────────────────────────────┼─────────────────┤
│ dense_4 (Dense)                      │ (None, 512)                 │         524,800 │
├──────────────────────────────────────┼─────────────────────────────┼─────────────────┤
│ dropout_8 (Dropout)                  │ (None, 512)                 │               0 │
├──────────────────────────────────────┼─────────────────────────────┼─────────────────┤
│ dense_5 (Dense)                      │ (None, 256)                 │         131,328 │
├──────────────────────────────────────┼─────────────────────────────┼─────────────────┤
│ dropout_9 (Dropout)                  │ (None, 256)                 │               0 │
├──────────────────────────────────────┼─────────────────────────────┼─────────────────┤
│ dense_6 (Dense)                      │ (None, 128)                 │          32,896 │
├──────────────────────────────────────┼─────────────────────────────┼─────────────────┤
│ dropout_10 (Dropout)                 │ (None, 128)                 │               0 │
├──────────────────────────────────────┼─────────────────────────────┼─────────────────┤
│ dense_7 (Dense)                      │ (None, 64)                  │           8,256 │
├──────────────────────────────────────┼─────────────────────────────┼─────────────────┤
│ dropout_11 (Dropout)                 │ (None, 64)                  │               0 │
├──────────────────────────────────────┼─────────────────────────────┼─────────────────┤
│ dense_8 (Dense)                      │ (None, 127)                 │           8,255 │
└──────────────────────────────────────┴─────────────────────────────┴─────────────────┘
 Total params: 33,277,311 (126.94 MB)
 Trainable params: 33,277,311 (126.94 MB)
 Non-trainable params: 0 (0.00 B)

2025-10-13 14:17:19,638 [INFO] Total parameters: 33,277,311
2025-10-13 14:17:19,638 [INFO] Step 5: Starting SUPERVISED training with regularization...
2025-10-13 14:17:19,638 [INFO] Using class weights to handle imbalanced data
…
